isEvenModel.pt (torch, 31631 bytes, 7 tensors)

0.weight f4 [64, 32]
000000 e2 10 52 3c 84 5b 23 3e 58 72 58 3d 6f 3d e7 3d
       0.012821408 0.15952879 0.05284342 0.112910144
000010 fa fa 39 3e 97 a5 83 3c 17 23 2d 3e dc 52 0b bd
       0.18162146 0.01607017 0.16907917 -0.034014568
000020 41 4e 0f 3e 19 65 42 3e 87 9f b2 bb c6 e8 73 3d
       0.13994695 0.18983878 -0.005451146 0.059548162
000030 19 eb b8 bd 41 03 b8 bd ee 00 b4 bd 25 5c 1d 3e
       -0.09029216 -0.08984996 -0.0878924 0.15367182
000040 94 57 04 bd f1 93 0a 3d 0c e2 bf bd ec f4 03 3d
       -0.032310084 0.033832494 -0.09369287 0.032215998
000050 bd 3f 44 3e 21 44 e1 3c e6 f7 42 3e 25 ec 5a 3e
       0.19164939 0.027498307 0.19039878 0.21379144
000060 33 81 00 3d 63 ac 82 bc 65 53 03 3e 7f 32 c7 bd
       0.031373214 -0.015951341 0.12824781 -0.09726428
000070 64 a5 d3 bb ae e1 20 3e 3b 56 33 3e 79 22 66 be
       -0.006458925 0.1571109 0.17513363 -0.22474088
000080 03 da 25 be d8 21 99 3d 5b 06 65 bd 7e 08 f5 bd
       -0.16196446 0.07477158 -0.055914264 -0.119645104
000090 1e d5 b1 3d 06 95 53 3e 48 8a 64 3d 2c 7c 7b bd
       0.08683227 0.20662317 0.055795938 -0.061397716
0000a0 8f d6 e2 3d ec 82 8d bd 66 c4 1f 3e 60 b1 fd 3d
       0.1107608 -0.06909737 0.15602264 0.12387347
0000b0 52 c0 3b bd af 13 45 3d a9 0f 42 bd 1d 24 1d 3e
       -0.045837708 0.048114475 -0.047378216 0.15345807
0000c0 e8 3d 7a 3d 33 07 88 bd 27 cc 1d 3d 4d af 28 3e
       0.061094195 -0.06641998 0.038524773 0.16473122
0000d0 c2 ec 9c 3d 2f 0e 0a 3e 20 6c 0b 3e b4 5b a7 bb
       0.076623455 0.13481973 0.13615465 -0.0051073674
0000e0 ee da f4 bc fb 5a a5 bd 4b c2 90 3d a6 bc 4f 3e
       -0.02988955 -0.08073994 0.070683084 0.20286807
0000f0 3c 06 01 3c c6 52 43 3d d0 71 07 3e 24 33 ae be
       0.007875022 0.04768636 0.1322701 -0.34023392
000100 30 41 ca bd 18 ab ab 3d d3 72 55 3c f1 73 00 be
       -0.09875715 0.08382243 0.0130278645 -0.12544228
000110 66 49 91 bc 04 5a 99 3d f0 df 45 3e 95 26 15 3e
       -0.017735194 0.07487872 0.19323707 0.14565499
000120 31 44 86 bc 35 99 10 3d 52 06 93 3d ee f4 3a 3e
       -0.016389938 0.03530236 0.0717894 0.18257496
000130 cd 1c 8b bd e9 7c d8 bc 81 1b ec 3d 3a 61 af bd
       -0.06792603 -0.02642675 0.115286835 -0.08563466
000140 62 96 f3 3d 42 40 c4 bd 3e f1 06 3e e7 16 14 3e
       0.118939176 -0.09582569 0.13177964 0.14461862
000150 96 02 4d bd 34 33 fa 3d 5e 7b 69 3b 40 6f e9 bd
       -0.050051294 0.122167975 0.003562651 -0.113981724
000160 ba 82 75 bd b9 10 23 3e d2 dc 1c be 64 3c 2b 3e
       -0.059939124 0.15924348 -0.15318611 0.16722256
000170 47 28 4a 3d 1b 53 29 3d 48 ec 95 bd a2 78 46 3e
       0.049354818 0.04133902 -0.07320458 0.19381955
000180 9b 11 0b be 0e 1b 85 bd 9e 88 12 3e 3b 0c bd 3d
       -0.13580935 -0.06499301 0.14309928 0.092308484
000190 bf 8b bc 3d ef b8 53 3d bc a2 38 3e b9 d5 db bd
       0.09206342 0.05169004 0.18030828 -0.10734124
0001a0 9d ef c1 bd f1 2e 4b 3d 31 60 11 3c 02 c9 73 3d
       -0.09469531 0.049605314 0.0088730315 0.059517868
0001b0 4a 19 80 bd ee ca e7 3d e6 d4 2e 3e ad a6 fa 3c
       -0.062548235 0.11318003 0.17073402 0.030597055
0001c0 fa b7 a7 bd 6d 4d 73 3d 85 eb 34 3e ca 3e 37 3e
       -0.081893876 0.05940001 0.17667969 0.17895046
0001d0 71 cd 4d 3e 8b fa a2 bd 16 42 fe 3d 73 df 82 bb
       0.20097901 -0.079579435 0.12414949 -0.0039939224
0001e0 7b f1 18 bb ac 15 66 3a a7 8f a5 3d 44 ba 8f bd
       -0.0023337293 0.0008777033 0.0808404 -0.07017949
0001f0 5e cb 24 3e 6a 11 9b bd ee dc 3e bd 13 33 1b 3e
       0.16093203 -0.07571681 -0.046597414 0.15156202
000200 0b 35 0c be f5 9a 84 bb 10 bd 3d 3d 41 14 19 be
       -0.1369211 -0.0040467926 0.046322882 -0.14949133
000210 b0 52 29 3e c9 b1 2b 3e 21 c6 94 3d 88 ed 5e 3e
       0.16535449 0.16767038 0.072643526 0.21770298
000220 eb c6 b4 3d 81 fd b2 bd 89 38 75 3d bb ab 2a bd
       0.08827003 -0.08739758 0.05986837 -0.04166768
000230 c7 61 0a 3e 74 37 49 3c f5 1a 0b 3d 66 11 0c 3e
       0.13513862 0.012281287 0.033961255 0.13678512
000240 00 78 96 bd fb 45 1e 3e e9 b4 a5 3d 56 76 f1 3d
       -0.07347107 0.15456383 0.080911465 0.11790149
000250 90 f3 d8 bc 50 88 63 3c fd 69 12 3e 03 a9 84 bd
       -0.026483327 0.01388748 0.14298244 -0.06477549
000260 e8 95 56 3e cd 71 ab 3d da a1 13 3e a5 e8 91 bd
       0.20955622 0.08371315 0.1441721 -0.071244515
000270 b0 3d 12 3e 8a 5f 12 be f2 1c 7b bd 49 2c 95 be
       0.14281344 -0.14294258 -0.0613069 -0.2913535
000280 19 82 bf bd 34 61 81 bd eb d1 83 3c 30 08 a6 ba
       -0.09350986 -0.06317368 0.016091308 -0.0012667235
000290 6d d8 e5 3d 7b 47 9f 3d 0e 76 01 3e de c4 1a 3d
       0.112229206 0.07777306 0.1264269 0.037785403
0002a0 21 54 7f bd e7 3e d0 3d 25 9f 5c 3d e4 ee 94 bd
       -0.06233609 0.10168248 0.05386271 -0.07272127
0002b0 6d 6c e7 3b 0e 33 a8 bd 6b 1a e1 bd a7 cf 81 bc
       0.007062486 -0.08212863 -0.10991367 -0.015846087
0002c0 2b e3 d6 bd 7c 2f 08 3e 29 12 d7 bc c6 0e 25 3d
       -0.104925476 0.13299364 -0.026253777 0.040297292
0002d0 d7 0f 54 bb e6 d9 c0 3d eb 4d 52 3e 2e f4 ae bd
       -0.0032358074 0.09416561 0.20537536 -0.08542667
0002e0 3f 63 0b 3e 19 79 1b 3e 1d df b2 bd bb cc ea 3c
       0.13612078 0.15182914 -0.08733962 0.028662076
0002f0 df ea 7e bd 53 21 f9 ba ab f5 59 3c 0c 8a 46 3e
       -0.06223571 -0.0019007124 0.013303201 0.19388598
000300 9f 2b 02 3d b6 42 11 be 9e ba 2a be 71 33 05 3e
       0.03177988 -0.14185604 -0.16672751 0.13007905
000310 96 2f 34 bd 87 7c 40 3e 6d ef c7 bd 32 83 ec 3d
       -0.043990694 0.18797503 -0.09762464 0.11548461
000320 4c 3c 11 3e be 2d 3b bd 82 ce 55 3d cb 05 a4 bd
       0.14183158 -0.04569792 0.052198894 -0.080089174
000330 8e dd 68 3d 09 1e 2d 3e db b4 0b bd 44 fc 0e 3e
       0.056851916 0.16905989 -0.034108024 0.13963419
000340 1e 79 5f bd 3e 4f b9 bd 10 53 86 bd 45 48 d2 bc
       -0.054558866 -0.090483174 -0.06558812 -0.025669226
000350 46 43 65 bd 08 d1 be 3d e4 91 f1 3d e1 42 82 bd
       -0.05597236 0.09317213 0.117954046 -0.063604124
000360 85 c5 3e 3d 76 f5 05 bd 55 27 c2 3d f9 03 30 bd
       0.046575088 -0.032704793 0.09480158 -0.04297254
000370 b9 fb a1 bd f0 b2 8d bb 37 ca e4 3d 2b c5 83 3e
       -0.079093404 -0.0043243095 0.11171382 0.25736365
000380 91 ec c7 bb 17 58 25 3e 73 f5 cf 3c 34 94 94 bc
       -0.006101199 0.16146885 0.025385594 -0.018137075
000390 5e e9 25 be 04 c6 fe 3d 5c a0 b3 3d f9 8c 1c bd
       -0.16202304 0.12440112 0.087708205 -0.03822038
0003a0 7b 21 08 be 69 9c 0e bd e5 d6 4c 3c 67 32 35 3e
       -0.13294022 -0.034817133 0.012502407 0.17695008
0003b0 67 73 a8 bc a1 17 95 bd a0 70 da 3c 6b 62 af 3d
       -0.02056284 -0.072798975 0.026665032 0.085636936
0003c0 93 a7 09 be e4 32 00 be 2c 64 99 bd 4c f6 a1 bd
       -0.1344283 -0.12519413 -0.074898094 -0.079083055
0003d0 ea 45 e2 bd 5e f1 2b 3e 06 52 3f 3e 37 c6 8d bd
       -0.11048491 0.16791293 0.18683633 -0.06922572
0003e0 2b b2 94 3d 55 a9 34 3e 89 c9 ec bd d5 f5 ae bc
       0.07260545 0.1764272 -0.11561877 -0.021357456
0003f0 82 ba 33 3e 58 f6 19 3e 5f 4a 79 bc 86 57 23 be
       0.17551616 0.15035379 -0.015215485 -0.15951356

0.bias f4 [64]
000000 cb 6d 82 3e db 17 1e bc d4 0b d2 3d b9 0e 06 3e
       0.2547439 -0.009649242 0.10256162 0.13091554
000010 1d 63 b1 3d 8e d0 45 3e f7 10 29 3e 5a 6a 20 3b
       0.086614825 0.19317839 0.16510378 0.0024477453
000020 77 e8 52 3d 15 6e 37 3e 05 37 21 3e f9 e6 38 bd
       0.051491227 0.17913087 0.15743645 -0.045142148
000030 ea af 34 3e 93 b4 6d bc bf 98 b8 3c 77 a9 45 3e
       0.17645231 -0.014508384 0.022533773 0.19302927
000040 7d 20 47 3e 92 2b db bd 00 23 06 bf d3 66 12 3e
       0.19445987 -0.1070167 -0.52397156 0.14297037
000050 c5 dd 5a 3e 11 0e 1e be c0 a9 24 3e aa 66 3c 3d
       0.21373661 -0.15435053 0.1608038 0.045996346
000060 ce b6 ce bd b1 7c ef 3d a8 e4 ad 3e 8d cd 80 3b
       -0.10093461 0.11693705 0.33963513 0.0039307536
000070 57 1f bf 3d 20 fc 1a 3d 92 b0 6c 3e 89 6d 0b be
       0.093321495 0.0378381 0.23114231 -0.13616003
000080 4d 4b 86 3e ab cd 88 3d 12 b9 fa bd e7 71 34 3e
       0.26229325 0.06679853 -0.122423306 0.17621575
000090 08 f8 44 3e 23 f4 1c bd e8 1c 05 3e 17 be 32 3e
       0.19235241 -0.038318764 0.12999308 0.17455326
0000a0 77 b6 ed 3d 66 7e 63 3e 3f 34 3b 3e 30 c2 1e 3e
       0.11607068 0.22216186 0.18281649 0.15503764
0000b0 ba 40 35 3d f7 5e c5 3d 69 7e 0b bd a3 78 15 be
       0.04425118 0.09637254 -0.0340561 -0.145968
0000c0 b9 43 04 bd e7 5a 86 3e 2c 4e 43 3e 14 35 e5 3d
       -0.032291148 0.26241228 0.19072789 0.111917645
0000d0 15 21 15 3e 47 fd 8d bd 80 f7 fb bd ed a2 f4 bd
       0.14563401 -0.069330744 -0.12303066 -0.11945138
0000e0 ed 73 80 3d 05 2f 93 3c 49 6c 8b 3e 11 2e 22 3e
       0.06272111 0.017966757 0.27231053 0.15837885
0000f0 ff d9 b5 3d 51 08 37 3d 51 2b a4 3d a3 18 a6 3d
       0.0887947 0.044685666 0.080160744 0.08110168

2.weight f4 [64, 64]
000000 55 52 d1 3c 63 73 d6 bc e9 15 aa 3c b8 bb e7 bc
       0.025551954 -0.026178068 0.0207624 -0.028287753
000010 c4 6d 58 3c 6b 9b 5d 3e 04 30 61 3e 3b b2 81 bd
       0.013209764 0.21641319 0.21990973 -0.06332823
000020 0a 39 45 3e e0 14 15 3e 23 07 88 3d 5c f7 8c 3c
       0.1926004 0.14558744 0.06641986 0.017207794
000030 62 89 09 3e 9a 1d bb 3a d3 ad 9a 3d 2f a4 be 3c
       0.13431314 0.001427579 0.075526856 0.023271648
000040 0b 15 ef bd fe cd 63 bd ca e5 06 3f 8c de 3a 3d
       -0.116739355 -0.05561637 0.5269438 0.045622393
000050 f3 58 56 bd 8d 21 10 3e 5c b7 17 be 54 ec ef 3d
       -0.052330922 0.14075299 -0.1481604 0.11714998
000060 d0 71 1d 3e da ff 20 be 7f b7 a0 3d 91 35 e7 3d
       0.15375447 -0.157226 0.07847499 0.11289514
000070 c9 e4 0d be fe 87 82 bd 89 35 93 3d 8f b4 ae 3c
       -0.13856806 -0.06373595 0.071879454 0.021326331
000080 d7 37 35 be 65 fd 30 3e c4 b8 5d 3e 3c d6 fd bc
       -0.17697082 0.17284162 0.21652514 -0.030985944
000090 32 64 f4 bd c6 b6 2e 3c bb 2a ea 3c 53 fb 34 3e
       -0.11933173 0.010663694 0.028584829 0.17673998
0000a0 48 ea 81 bd 55 3e c9 bd ff e0 35 3e 32 44 cc bd
       -0.06343514 -0.09826342 0.1776161 -0.09973945
0000b0 62 8c 55 3e 0c 67 0b 3e a4 40 9e 3d bb 49 f1 bc
       0.20854333 0.13613528 0.07727173 -0.029454103
0000c0 fd 39 4a 3c ec 11 33 be 6f 1b 65 3e 01 72 9b 3c
       0.012342927 -0.17487305 0.22373746 0.01897526
0000d0 2d 89 2c 3e ef d6 19 3c f7 eb 0a 3e ec aa 09 3c
       0.16849203 0.009389623 0.13566576 0.008402567
0000e0 57 55 2a 3e 6a 62 a2 bc 4c 69 b3 3c ee bd 3d 3e
       0.16634117 -0.019822318 0.021900795 0.18529484
0000f0 6c 1a 09 ba 40 85 67 bd 38 28 25 be 96 50 39 3d
       -0.00052300724 -0.05652356 -0.16128623 0.04524287
000100 3b b4 b2 bd 5b 27 34 3c 1e 01 1d bd 65 f2 06 3e
       -0.087257825 0.010995711 -0.038331144 0.13178404
000110 d8 ec ee bd fe f9 b0 3d 33 54 18 3e 67 c9 23 bd
       -0.11666268 0.08641432 0.1487587 -0.039986994
000120 84 54 a0 3d eb c3 86 3d bf 7a 2b 3e 98 47 1b bd
       0.0782862 0.06580337 0.16746043 -0.037910074
000130 13 86 43 3e 3d 67 1b 3e 09 55 29 3e 2e 73 8c 3d
       0.19094114 0.15176101 0.16536345 0.06857906
000140 85 e2 20 3d 35 41 d5 bd c1 e9 19 3f 95 14 00 3e
       0.039278526 -0.10412828 0.60122305 0.12507851
000150 fe 47 65 bd fd a7 1e 3e be 77 1f be 86 f3 c0 3d
       -0.05597686 0.1549377 -0.15573022 0.094214484
000160 b9 ee e5 3d 73 e6 98 3b 91 10 10 3e 16 81 4c 3e
       0.11227173 0.0046661436 0.1406882 0.19971117
000170 0a 4c 51 bc de ca e6 bd 08 e8 82 bd 2a 8e 71 3e
       -0.012774477 -0.112691626 -0.06391913 0.23589388
000180 43 2f ad 3c 21 28 48 3e 2d b4 ea 3d 5c f5 dd bd
       0.0211407 0.19546558 0.11460147 -0.10837814
000190 6f 9e a3 3c 7b 3b 3b bc 15 37 13 bb e3 6d 8a bc
       0.019973008 -0.0114277555 -0.0022463251 -0.016898101
0001a0 5c a9 44 3d b1 5f ab 3d ab aa f3 b9 1f 8e 03 3d
       0.048013076 0.08367861 -0.0004647573 0.03211796
0001b0 30 69 76 3e 15 10 1d 3e 07 4e 03 3c 8c d2 c9 bd
       0.24063563 0.15338166 0.008014209 -0.09854612
0001c0 46 96 7c 3d 29 9d 94 bd 03 96 fc 3d e5 90 7a bc
       0.06166675 -0.072565384 0.123333 -0.015293335
0001d0 00 1c e5 3d 6d f0 97 3d 1f 4a 8d 3d 9d dd ae 3d
       0.11186981 0.074189045 0.06898903 0.08538363
0001e0 f7 ee 2c 3e 54 39 f0 bb 75 18 92 3c a2 13 2b 3e
       0.16888033 -0.007331053 0.017833928 0.16706708
0001f0 76 be 99 3d 6f ac 05 be 8b ae c5 bd b9 3a 39 3e
       0.07507031 -0.1305406 -0.09652432 0.18088807
000200 7e 34 63 3e 73 a3 5f 3e 0d c7 01 bd c1 74 3c bd
       0.22187993 0.21839695 -0.03168397 -0.046009783
000210 52 62 55 3e 7d d1 9e bd bb 66 df 3c 75 02 d3 3d
       0.20838287 -0.077548005 0.027270665 0.10303203
000220 16 dc 86 bd 18 27 5f 3d 7e 61 9d 3d 3d 3d 94 3d
       -0.06584947 0.054480642 0.07684611 0.07238243
000230 4c 6d ff 3d 2d a2 44 be 6b 9c 3b 3d 1c 7d 1c 3e
       0.124720186 -0.1920249 0.04580347 0.152821
000240 6f 4c a4 3d bd 90 8b bd 60 b5 ff be d5 c7 aa 3b
       0.08022391 -0.06814716 -0.49943066 0.00521181
000250 48 a4 e2 3d 28 4e 24 3b 8b c0 6c 3e b3 85 b2 bc
       0.110664904 0.0025070999 0.23120324 -0.021792268
000260 75 51 1d 3d 18 8e c8 3d b0 c0 c7 bc 3f 44 a6 bd
       0.03840776 0.09792727 -0.024383873 -0.08118486
000270 d6 a4 6f 3e b6 64 9f bb 4c 5f 6f 3e 3d 57 03 be
       0.23402724 -0.0048643006 0.23376197 -0.12826248
000280 76 14 49 3e a8 ec 8b bc f5 34 c2 bc 60 2d 84 3e
       0.19636711 -0.01708062 -0.023706893 0.25815868
000290 83 ee cd 3d 58 40 28 bd 00 21 6c 3b 1f 68 38 bb
       0.10055258 -0.041076988 0.0036030412 -0.0028138233
0002a0 7b 38 2a 3c 1a 32 65 3e 29 ca e2 3c 4d 10 51 3e
       0.010389443 0.22382393 0.027684288 0.20416375
0002b0 c8 a3 42 bd 38 71 d1 bd 17 3d 0c be a7 5b c1 3d
       -0.047519475 -0.10226673 -0.13695179 0.094413094
0002c0 25 1a a6 3d 8b 99 9b 3d bf d7 d0 3c 08 46 30 3d
       0.081104554 0.07597645 0.0254935 0.043035537
0002d0 5e 1b 74 3d 87 7a 75 bd 31 f2 c6 bd 85 b5 20 be
       0.059596412 -0.059931304 -0.09714163 -0.15694244
0002e0 09 85 9c bd a3 a1 db 3d 41 fb 75 3e 33 1f 38 3d
       -0.07642562 0.10724189 0.24021627 0.04495163
0002f0 7e 7e 02 3e 0d cf 39 3e 8e 04 14 3d 2f e8 7b 3c
       0.12743565 0.1814539 0.036137156 0.015375181
000300 ba 71 92 3d 66 d4 c7 bd 1c 80 af bd 36 29 80 3d
       0.07150598 -0.09757309 -0.08569357 0.0625786
000310 3a 95 c7 bd a0 9c 4b 3c 8c c1 63 bd 36 1a cf 3d
       -0.097452596 0.012427479 -0.055604503 0.10112421
000320 ce 75 ad 3d 0c a5 10 bd 80 f2 37 bc d0 c0 9e bd
       0.08469735 -0.03531365 -0.01122725 -0.0775162
000330 e0 3c 34 bc 62 a9 b0 bd 80 1f 90 bd 34 69 8a 3d
       -0.011000842 -0.08626057 -0.07037258 0.06758347
000340 a4 a5 8a bd 50 78 96 bc b4 dc 48 bd d2 11 f6 3d
       -0.06769875 -0.018367916 -0.049038604 0.12015118
000350 bc c4 20 bd d4 2d 1c bd 00 bd c5 bb 60 26 ad 3b
       -0.03925012 -0.038129643 -0.0060344934 0.0052841157
000360 60 34 be 3b 10 85 d7 3d 8e da cf bd 30 ae 6e bd
       0.0058045834 0.105234265 -0.10149108 -0.058271587
000370 00 95 c1 3a 28 df e4 bc 80 5d 57 bd e4 47 70 3d
       0.0014769137 -0.02793844 -0.052579403 0.05866231
000380 f2 18 a6 bd e0 f7 3e bc d8 c4 4b 3d 20 a7 d9 bd
       -0.08110227 -0.011655778 0.04974827 -0.1062758
000390 38 30 80 3c d0 e0 52 bc be 47 8f bd 3a 75 c0 bd
       0.015647992 -0.012870982 -0.069961056 -0.09397359
0003a0 d0 c2 99 bd 70 15 35 3c 1c 22 53 bd 68 f3 8b 3c
       -0.07507861 0.011052474 -0.0515462 0.017083839
0003b0 a8 c3 02 3d fe dd e6 bd 84 54 1a bd 60 45 cb bd
       0.031924874 -0.112728104 -0.037678257 -0.099253416
0003c0 e8 b8 81 3c 40 95 79 bd c0 ef e4 3b 7a d9 ac bd
       0.01583524 -0.06093335 0.0069865882 -0.08439918
0003d0 44 b4 d8 3d 0a 6b b1 3d 98 0b 18 bd 38 60 c7 3c
       0.10581258 0.08662994 -0.03712043 0.024337873
0003e0 e0 6b 81 3d e0 fb d6 3d c4 0e 65 3d ac c0 84 bd
       0.06319404 0.1049726 0.055922285 -0.06482062
0003f0 f8 cc d9 bd d0 e8 cc bd 8c df e6 3d c6 92 97 bd
       -0.10634798 -0.10005343 0.11273107 -0.07401042

2.bias f4 [64]
000000 2d 16 69 3d 97 a8 5a bd 14 bf 9d 3d f8 87 9c bd
       0.056905914 -0.053383436 0.07702461 -0.076431215
000010 c4 f4 7e 3c 6c 5d 54 bd fa 58 64 bd fe 93 fb 3d
       0.015561286 -0.051846907 -0.055748917 0.12284087
000020 e6 3c dc bd 69 e9 39 bd 71 07 76 3d a6 a7 3a 3e
       -0.10753803 -0.045388613 0.06006569 0.18228015
000030 cb 1c 0d 3d dc 86 45 3e fc 8e ac 3c bc 66 d4 3d
       0.034451287 0.19289726 0.021064274 0.103711575
000040 d9 08 5d bb 16 2d 1e 3d cb 24 10 3c b6 f9 d3 bb
       -0.0033727197 0.038617216 0.008797835 -0.006468977
000050 d0 d2 25 3e ca a6 f8 bd af eb b3 3d e0 37 28 bc
       0.161937 -0.121411875 0.087851875 -0.010267228
000060 d3 1f 4d 3d d3 e7 5c bb 74 7f a6 3d 4d 5f e1 bd
       0.050079178 -0.0033707514 0.081297785 -0.11004505
000070 97 49 93 3c a5 3d 34 3c 16 60 00 3e 9f 12 97 3d
       0.017979426 0.011001025 0.12536654 0.073765986
000080 7e 08 39 bd de 84 8a 3c 75 80 0c 3e 12 75 11 3d
       -0.045174114 0.01690906 0.13720877 0.035512038
000090 a4 24 97 3d 8d 5e ed bd 54 dc 69 3e 6a c6 f9 bb
       0.073800355 -0.115903 0.22837955 -0.0076225298
0000a0 1f 54 d3 bd d2 97 ce bc f1 9d 11 3e 7a a4 ac 3d
       -0.10318779 -0.025218878 0.14220406 0.08429809
0000b0 ff 01 15 3e e5 04 01 be 20 cc 38 3d f6 2a d4 bc
       0.14551543 -0.12599523 0.045116544 -0.025899392
0000c0 32 33 ae 3d ae ca 59 3d c4 e5 b2 3d 86 42 79 3d
       0.085058585 0.053171806 0.087352306 0.060854457
0000d0 7c db af 3d 86 cb 3d 3d 1c 99 55 3d 85 d1 15 3f
       0.08586785 0.046336673 0.05214797 0.58522826
0000e0 f0 49 13 3e 6f b4 23 3e 40 3f 39 bd ef 3c 4b bd
       0.14383674 0.15986799 -0.045226336 -0.049618658
0000f0 41 38 8e 3d 33 89 40 3e f9 ad 8e 3d 0b 84 3c 3e
       0.06944323 0.18802337 0.069667764 0.18409745

4.weight f4 [16, 64]
000000 4a cd 16 3e 01 8b 48 3e 5a 55 18 b9 f0 1c 36 bc
       0.14726749 0.19584276 -0.00014527646 -0.011115298
000010 55 54 2d 3e 95 53 92 3d c4 bb 8b 3c 50 11 b5 38
       0.16926701 0.07144848 0.017057307 8.633977e-05
000020 f1 16 63 3e e7 23 73 3e 71 79 6c 3d bc b3 c3 bd
       0.2217672 0.23744164 0.057733003 -0.09555766
000030 4b f9 b4 bd be e3 e7 3b f6 3d 6a 3e d8 a7 d2 3d
       -0.08836611 0.0070767095 0.22875199 0.1028592
000040 26 89 a8 bd 34 d5 27 3d f4 80 db 3d 41 e2 2e 3e
       -0.08229284 0.04097481 0.10717955 0.17078497
000050 68 df 8f ba 41 98 29 3c 50 13 5e 3e 70 91 0e 3d
       -0.0010976614 0.010351242 0.21687055 0.03480667
000060 e4 84 f1 3d 1f 55 30 3e 0e ab af bd f0 40 d8 3d
       0.11792925 0.17219971 -0.08577548 0.10559261
000070 6e d5 06 3d 40 fc 28 be 91 a1 5e 3e 51 ce 0b 3d
       0.032918386 -0.16502476 0.2174132 0.034132306
000080 f7 06 3d 3e 84 00 14 bd 55 27 83 3c 53 62 d0 3d
       0.18459688 -0.036133304 0.016009966 0.10175004
000090 85 93 11 be 49 a2 30 3e dc 1e bc 3d fd 2c ac bd
       -0.1421643 0.17249407 0.091855735 -0.08407018
0000a0 49 36 83 3d 0c bf 17 3e 61 26 d7 3c fe 47 3d be
       0.064068384 0.14818972 0.026263418 -0.18484494
0000b0 c1 e9 48 be 0b ac 3e 3e 2b bf eb 3c 55 be 13 be
       -0.1962042 0.18620317 0.02877768 -0.14428075
0000c0 12 f2 a7 3c be e5 b6 bc e3 6e f7 3c bb 59 86 bd
       0.02050117 -0.022326346 0.030204242 -0.065600835
0000d0 78 d0 3c 3e b1 07 b6 bd 5f e4 5b bd 88 90 40 be
       0.184389 -0.08888186 -0.05368459 -0.18805134
0000e0 88 8d 09 3e fd d4 13 be c0 2e 81 bb 7d 1f 9d bd
       0.13432896 -0.14436717 -0.0039423406 -0.076720215
0000f0 66 d9 de 3d 1e 06 20 be 75 af 76 bc 84 81 01 be
       0.10881309 -0.15627334 -0.015056481 -0.12647063
000100 c4 1d 99 3c 40 a7 6b 3d 00 66 a3 3d b8 e6 c2 bc
       0.018690951 0.05753255 0.07978439 -0.023791656
000110 a8 63 b0 bd f7 b4 7b 3d 99 d2 d8 3d c1 18 b9 3b
       -0.08612758 0.06145188 0.10587043 0.005648703
000120 b9 ba 13 3d 0d 4c 02 be 5a 4c a8 3d 83 56 92 3d
       0.036066744 -0.12724324 0.08217688 0.07145407
000130 4c cc d7 bc fa ed aa 3b ed c8 5f 3d 90 e5 e1 bd
       -0.026342534 0.0052163573 0.054634977 -0.11030114
000140 34 e6 12 3c b1 91 7f bd aa 5e 45 bd 46 01 45 3d
       0.0089660175 -0.0623948 -0.04818598 0.048096918
000150 a1 2b 54 bd b7 71 19 3d 19 63 e0 3c b8 47 c1 3d
       -0.05179942 0.037461963 0.027391003 0.094375074
000160 fc 9c 53 3d cb 2f 49 bd 5d 04 05 be 28 80 45 3d
       0.051663384 -0.049117845 -0.12989946 0.048217922
000170 80 f0 44 3d 7a 86 81 bd 7b bb 6e 3d 83 0b bb bd
       0.04808092 -0.063244775 0.058284264 -0.09133055
000180 22 77 e8 bd 05 8c f7 bc c7 26 ff bd 30 c0 13 bd
       -0.11350848 -0.030218134 -0.12458568 -0.036071956
000190 cd 27 16 3d 48 67 81 bd e3 0d 30 3c a0 ec c8 3c
       0.03665905 -0.063185275 0.010745498 0.024526894
0001a0 12 aa b6 3c cf e7 25 3d 22 f9 29 3c e2 a8 d6 bd
       0.022297893 0.040504273 0.010374339 -0.104814306
0001b0 d0 3a 06 bd 5a 83 a9 bc 5d 80 13 bd ec d2 91 3d
       -0.03277093 -0.020692516 -0.03601109 0.07120308
0001c0 a7 1b a6 bd 52 2e dc 3d 52 44 76 3c 05 67 1c 3c
       -0.08110743 0.107510224 0.015030937 0.009546046
0001d0 ce ce e8 bd 24 46 b3 bd 24 7a ef bd 37 f7 ba bd
       -0.1136757 -0.08753613 -0.11693218 -0.09129184
0001e0 33 30 b5 bd 48 c4 0a bd 60 51 2b bd e4 76 bb 3d
       -0.08847084 -0.033878595 -0.041825652 0.09153536
0001f0 53 dd a3 3d 51 19 9f bd 79 a9 8d bd d8 90 85 3d
       0.080011986 -0.077685006 -0.0691709 0.065217674
000200 75 b9 b8 bd 02 e8 58 3d 73 2f ef 3d 82 03 cc 3d
       -0.09019748 0.052955635 0.11678972 0.099616066
000210 94 b8 90 3d 84 a9 78 bc f1 d6 c9 3d cb 94 a2 bd
       0.070664555 -0.015177134 0.0985545 -0.07938536
000220 c6 a9 ed bb 55 c3 2c bd 4d 4f cf bc 32 85 26 bd
       -0.0072529046 -0.04217847 -0.025306368 -0.04065437
000230 80 79 e4 3a 93 90 c6 bd 9d b8 cf 3d fb 1f 66 bd
       0.0017431229 -0.09695544 0.10142634 -0.056182843
000240 00 23 3e ba 6f 36 64 3d 85 f3 7e 3c 3a 34 fe 3c
       -0.000725314 0.055715974 0.015560989 0.031030763
000250 da 6a a7 3d 00 f7 de 3d bc 57 86 bc 98 bc d1 3d
       0.08174677 0.10886955 -0.016399257 0.102410495
000260 ea ff d2 bd a6 32 d4 bd d1 c6 64 bd ac 36 31 3b
       -0.10302718 -0.10361223 -0.05585367 0.0027040644
000270 e3 e8 4d bc 0a b7 ed bd c2 39 50 3d 3d a8 dc bb
       -0.012567732 -0.116071776 0.050836332 -0.0067339228
000280 3a b6 fb bd 56 c1 f1 3c 39 ea 08 bc 34 94 c7 bd
       -0.12290616 0.029511135 -0.008356624 -0.097450644
000290 70 5f 7e 3d 31 6a 04 be 6f 77 83 3d be 12 e9 bd
       0.062102735 -0.12931134 0.064192645 -0.11380528
0002a0 a1 16 ab 3c 1a 2c da bd a1 a0 2a bd a3 57 e4 bd
       0.020884814 -0.10652943 -0.041657094 -0.11149528
0002b0 c3 65 e8 bd 24 59 bf bd f0 0d a8 3d e8 f4 96 3c
       -0.113475345 -0.09343174 0.08205783 0.018427327
0002c0 a7 9c ba 3d 61 78 3d 3d e8 a2 8e bd 17 ee d4 bd
       0.0911191 0.04625738 -0.06964666 -0.103969745
0002d0 a6 0a fc bd 9e 5f 64 3d 10 71 3d bc d8 cb 60 bd
       -0.123067185 0.05575525 -0.011562601 -0.0548819
0002e0 16 e1 be bd eb 6c f3 bd 62 f9 ca 3d 7b 42 47 3d
       -0.093202755 -0.11886009 0.09910847 0.048647385
0002f0 f8 4f e6 bd f1 76 73 bd 91 64 e1 bc 3c d7 10 bd
       -0.112457216 -0.059439603 -0.027513774 -0.035361513
000300 1a 61 8a 3d b4 5b e8 bc 83 12 88 3e a8 bf f8 3d
       0.06756802 -0.02836404 0.26576623 0.121459305
000310 8b b7 a9 bd f6 d3 dd bd cb 55 c0 3d e2 68 8e 3c
       -0.08286961 -0.10831444 0.09391364 0.017383996
000320 ea f5 41 be 99 32 c4 ba 66 9a c5 bd 4f 40 81 3e
       -0.18941465 -0.0014968693 -0.0964859 0.25244376
000330 ac ff e1 bd c7 73 40 3e 6a 75 91 bd fd 0c 98 3c
       -0.11035094 0.18794166 -0.07102473 0.01856088
000340 3c 62 8c 3e 54 3e 4d be d1 d3 cf bd fe 0c 48 bd
       0.27418697 -0.20043308 -0.10147823 -0.048840515
000350 ef d3 46 3e e9 be c9 bd 40 67 39 3d 40 dd 14 3b
       0.19416784 -0.09850866 0.045264482 0.0022714883
000360 3d 0d bf bd 20 8e 5f bc 1c 2d f6 3d 65 78 92 bd
       -0.09328697 -0.013644725 0.12020323 -0.0715187
000370 0a aa de 3c e1 3f 55 3e 6c 14 96 bc be 7d 23 be
       0.02718069 0.20825149 -0.018320285 -0.15965936
000380 3e 41 51 3c 42 7d 57 3d dc fd e0 3d 01 80 0f 3e
       0.012771903 0.05260969 0.1098592 0.14013673
000390 64 7f 19 3e 01 c3 34 be 4a f7 45 3e 88 83 10 3e
       0.14990002 -0.17652513 0.19332615 0.14112675
0003a0 65 63 78 3d 0c 57 5e be 17 a6 ff 3d 4c 40 88 3e
       0.060641665 -0.21712893 0.12482851 0.26611555
0003b0 2a eb c6 3d a9 2a 32 be e2 8d 4a be ce 4f 11 3e
       0.09712823 -0.17399086 -0.19780686 0.141906
0003c0 bf 00 00 be 4c dc 90 bd d8 70 96 3e f7 0d 06 3e
       -0.12500285 -0.07073268 0.29382968 0.13091265
0003d0 8d 04 3e be 6c d5 ab bd cc ca 90 3e da 8e 80 3f
       -0.18556423 -0.08390316 0.28279722 1.0043595
0003e0 82 02 53 3c 3b 7f f0 3d 06 7b a8 bd d8 68 7b bd
       0.012879016 0.11743017 -0.0822659 -0.061379284
0003f0 53 d5 9b bd bf 4f 85 3e ba dd 86 3e bf ce 87 3e
       -0.07609048 0.26037404 0.2634104 0.26524922

4.bias f4 [16]
000000 0f fc c8 3c 8e fc f1 3c 78 cb b7 bc 98 d4 eb 3d
       0.024534253 0.029539373 -0.022435889 0.115151584
000010 11 5d 11 3d aa 34 9d bd 07 30 c6 bd 81 92 33 bd
       0.035489146 -0.076760605 -0.09677129 -0.04384089
000020 e3 b9 1f 3b d5 59 35 3e ee ae de bd da 72 14 3e
       0.0024372272 0.1771005 -0.10873209 0.14496937
000030 e9 46 df 3d ec 3b f3 bd 35 42 cd 3d 93 65 85 3c
       0.10902197 -0.118766636 0.100223936 0.016283786

6.weight f4 [1, 16]
000000 10 b9 7e be 02 ae 43 be 97 4b 80 bc b7 84 c2 3e
       -0.24875283 -0.19109347 -0.015661044 0.37991878
000010 49 0c 97 be 57 a9 5e be 5a af 72 be 5b 08 86 be
       -0.2950156 -0.21744286 -0.23699704 -0.2617825
000020 ca c8 cd be 1c 05 a4 3e 1c 58 05 be 65 1d a4 3e
       -0.40192252 0.32035148 -0.13021892 0.32053676
000030 a0 df d9 3e 44 bb f9 bd 15 00 52 be 3e e7 a0 be
       0.42553425 -0.12193921 -0.20507844 -0.31426424
